generator_epoch100.pth (torch, 428899 bytes, 16 tensors)

conv1.weight f4 [64, 3, 9, 9]
0.023603478 0.014904629 -0.042892173 0.04485857 -0.02102584 0.0231262 0.008346972 -0.06648145
-0.020475661 0.060852006 -0.013330094 0.087375544 0.06936411 0.0561747 0.01735349 -0.021005644
0.037503567 0.026862694 -0.04977405 0.032046318 -0.0079223765 0.00062908913 0.070519075 0.08412529
0.046224322 0.035271876 0.018123673 0.0019479347 -0.019534405 0.023499258 -0.04325514 0.02533495
-0.03678237 -0.029225176 0.03395983 0.0018513256 -0.034855504 -0.030261146 0.0035343932 -0.033166513
0.07319768 0.0009194169 0.040531527 0.02158903 -0.027362972 0.06392525 0.027092665 -0.026037088
-0.0048770807 -0.006871992 0.0010820886 0.055211686 -0.042126868 0.037418537 -0.044323906 -0.031313032
-0.054613806 0.03195808 -0.039881222 -0.07175805 0.04236589 -0.012198647 0.025237069 -0.031208368
-0.07440948 0.023410136 -0.1085494 -0.043647204 -0.026434625 -0.05427499 -0.08285628 -0.06595561
0.03296313 0.042132627 -0.008744086 -0.012582423 -0.05878603 -0.021462565 -0.003357984 0.000638711
0.0393233 -0.0062428443 -0.07775529 -0.013979966 0.04618324 -0.04385292 0.027576502 0.0069526504
0.033704884 0.0027897411 0.05461807 0.074611366 -0.03993048 0.0011687693 0.0074965907 0.013829269
0.020729734 -0.033216596 0.019914242 -0.03503396 0.031539835 -0.019059483 -0.042293806 0.0060415906
0.047541242 0.05613895 0.06322399 0.056443576 0.04206267 0.023559907 0.031155521 -0.03629333
0.00088126684 0.035171695 0.04338196 -0.046144824 -0.027187128 -0.021550685 -0.042459495 0.064406194
-0.039085604 -0.023137022 -0.03161273 -0.04609415 -0.0028847787 0.03964588 0.057589423 -0.0070034345
0.07387453 0.070853256 0.025484994 0.016114265 -0.035785694 0.002753655 0.078319676 -0.0014591902
0.018621476 0.008460183 -0.04869296 -0.017732495 0.031987812 -0.0074091963 -0.043798268 -0.049924508
-0.03452738 -0.006284413 0.02123362 0.0054198434 -0.03823954 -0.06672061 -0.07801111 -0.06902059
-0.03192787 -0.021787446 0.027102476 -0.012716185 0.04301003 0.0318489 0.034609955 -0.02936986
-0.018464072 0.05085249 0.0034080613 -0.076761514 -0.02095828 0.04497199 0.057213437 -0.040587302
-0.03656181 -0.0021565412 -0.061262045 -0.03190129 0.010838328 -0.0129012875 0.07712903 0.034236956
0.06333107 0.016872121 0.04521631 -0.010325151 -0.015889581 0.005303736 -0.017497022 0.05297652
0.049851235 -0.022682978 -0.010884549 0.012031295 0.040236782 -0.004910204 0.03453306 0.024990788
0.05127262 -0.0057393126 -0.03377988 0.02223849 -0.042714555 -0.02841414 -0.013894181 -0.0030528668
0.030221146 0.06455597 0.008311449 -0.02406382 -0.013170665 0.0077275317 -0.033702176 0.018293997
0.07070349 -0.028020302 0.05419696 0.05468186 -0.04206301 -0.0059039993 0.05383835 -0.022358615
0.013370765 -0.062267963 -0.017183831 0.003147116 0.043699604 -0.0034494703 0.0066309613 0.018628832
0.0032988994 -0.044970296 -0.0040195957 -0.08704769 -0.020609383 -0.064247034 -0.04004576 -0.0066338466
-0.040982332 -0.0121918 -0.013597145 -0.06489397 -0.012670791 -0.0396048 -0.024125468 -0.019413091
-0.018193228 -0.026643457 -0.016286355 0.025445467 0.07281177 0.016935727 0.034032296 -0.04366287
-0.030312287 -0.0263317 -0.023767872 0.047216807 0.03402044 -0.064046316 0.011584881 0.012158739
00000000: 155c c13c 8c32 743c b4af 2fbd 9fbd 373d
00000010: 623e acbc 2873 bd3c bdc1 083c 6d27 88bd
00000020: 93bc a7bc f43f 793d 7766 5abc f3f1 b23d
00000030: c50e 8e3d 7117 663d e828 8e3c 0714 acbc
00000040: 579d 193d 270f dc3c e0df 4bbd 0043 033d
00000050: dbcc 01bc 75e9 243a 4e6c 903d e149 ac3d
00000060: b755 3d3d 3e79 103d 1978 943c d851 ff3a
00000070: 9e06 a0bc 8481 c03c 4d2c 31bd 3e8b cf3c
00000080: 1ca9 16bd a369 efbc 7619 0b3d 2ea8 f23a
00000090: a5c4 0ebd 39e6 f7bc 47a1 673b 9cd9 07bd
000000a0: aae8 953d 0605 713a 6304 263d 7adb b03c
000000b0: 5028 e0bc 3eeb 823d 70f1 dd3c bb4b d5bc
000000c0: ebcf 9fbb 722e e1bb ded4 8d3a a625 623d
000000d0: 398d 2cbd 2e44 193d fc8c 35bd 1842 00bd
000000e0: bab2 5fbd 7ae6 023d 7e5a 23bd e2f5 92bd
000000f0: db87 2d3d d5dc 47bc f8bd ce3c b1a8 ffbc
00000100: ff63 98bd 9dc6 bf3c 264f debd 69c7 32bd
00000110: 6d8d d8bc 744f 5ebd 8eb0 a9bd bc13 87bd
00000120: 5904 073d 4393 2c3d 5b43 0fbc 8226 4ebc
00000130: 9fc9 70bd 43d2 afbc 9f11 5cbb 2b6f 273a
00000140: 7811 213d c690 ccbb 2a3e 9fbd 3a0c 65bc
00000150: a32a 3d3d 1f9f 33bd 1ee8 e13c 0fd3 e33b
00000160: 220e 0a3d 17d4 363b 33b7 5f3d d8cd 983d
00000170: 258e 23bd 6431 993a f6a5 f53b 2994 623c
00000180: 67d1 a93c 200e 08bd 3123 a33c c57f 0fbd
00000190: ea2f 013d a222 9cbc 453c 2dbd 89f8 c53b
000001a0: 9bba 423d f5f1 653d 947b 813d 6131 673d
000001b0: e849 2c3d b500 c13c dd39 ff3c 51a8 14bd
000001c0: d104 673a 3210 103d 48b1 313d 5b02 3dbd
000001d0: 8ab7 debc 108b b0bc 02ea 2dbd 65e7 833d
000001e0: 3a18 20bd da89 bdbc 5a7c 01bd 38cd 3cbd
000001f0: 8e0e 3dbb b863 223d e3e2 6b3d 117d e5bb
00000200: 884b 973d 831b 913d e8c5 d03c 1002 843c
00000210: 0594 12bd aa76 343b 1166 a03d 4c42 bfba
00000220: 118c 983c 949c 0a3c 4572 47bd bd43 91bc
00000230: a705 033d d8c8 f2bb d065 33bd a47d 4cbd
00000240: 956c 0dbd 7aed cdbb 21f2 ad3c f198 b13b
00000250: 10a1 1cbd d1a4 88bd 4ac4 9fbd ab5a 8dbd
00000260: ccc6 02bd 967b b2bc 0306 de3c 8c57 50bc
00000270: 492b 303d fe73 023d 2bc3 0d3d 1099 f0bc
00000280: f741 97bc b34a 503d c859 5f3b 2435 9dbd
00000290: b3b0 abbc 8d34 383d a358 6a3d df3e 26bd
000002a0: d6c1 15bd c254 0dbb e9ed 7abd edaa 02bd
000002b0: 3e93 313c ec5f 53bc d3f5 9d3d 0d3c 0c3d
000002c0: b8b3 813d 6737 8a3c bd34 393d d22a 29bc
000002d0: de2a 82bc f6ca ad3b ea55 8fbc e8fd 583d
000002e0: cf30 4c3d a7d1 b9bc 1b55 32bc e91e 453c
000002f0: 53cf 243d c7e5 a0bb 8a72 0d3d 7bb9 cc3c
00000300: 3d03 523d d810 bcbb c55c 0abd 7e2d b63c
00000310: 75f5 2ebd c5c4 e8bc 6ba4 63bc 9b12 48bb
00000320: 5692 f73c ec35 843d be2c 083c 7d21 c5bc
00000330: c6c9 57bc 3c37 fd3b 4b0b 0abd 4bdd 953c
00000340: fecc 903d d58a e5bc a2fd 5d3d 16fa 5f3d
00000350: 434a 2cbd 5676 c1bb 9a85 5c3d 6a29 b7bc
00000360: 0e11 5b3c b10c 7fbd 1bc5 8cbc d83f 4e3b
00000370: 5bfe 323d 8210 62bb 8948 d93b 7e9b 983c
00000380: 5932 583b c632 38bd d0b6 83bb 0f46 b2bd
00000390: 02d5 a8bc f393 83bd 0607 24bd bd60 d9bb
000003a0: 17dd 27bd 1ec0 47bc 8fc6 5ebc 21e7 84bd
000003b0: 2699 4fbc a538 22bd c6a2 c5bc 3408 9fbc
000003c0: f709 95bc 6143 dabc f66a 85bc 0373 d03c
000003d0: 561e 953d cbbc 8a3c 7365 0b3d d6d7 32bd
000003e0: 7951 f8bc 94b5 d7bc d7b4 c2bc 6966 413d
000003f0: 0459 0b3d b72a 83bd 83ce 3d3c 7335 473c

conv1.bias f4 [64]
-0.30701253 -0.22567704 -0.0074499683 0.026347606 -0.007684508 -0.07515824 -0.1665654 -0.017933065
0.07982746 -0.012903617 -0.020760054 -0.16988662 -0.010571481 -0.20318513 0.02970296 -0.15839235
-0.009019303 -0.0642966 -0.09476048 -0.17284796 -0.008693712 -0.07633864 0.009918621 -0.07362842
0.030575456 -0.029253393 -0.038523372 0.021896783 -0.0037180502 -0.14212538 -0.13476667 -0.011657667
-0.3935787 0.0075083384 -0.03092991 -0.24430762 0.020979896 -0.14744408 -0.026846042 0.026805159
-0.012369069 0.0026152676 -0.032324843 -0.007029015 -0.01068632 -0.08856873 -0.25696242 -0.09422911
-0.061886832 -0.05992477 -0.19200258 -0.023255965 -0.03547941 -0.02357992 -0.19595183 -0.0628735
-0.26874617 0.005400681 -0.06937897 -0.012323388 -0.022319237 0.03769892 -0.012841521 -0.020418512
00000000: bf30 9dbe e217 67be dd1e f4bb efd6 d73c
00000010: 53ce fbbb 90ec 99bd 1f90 2abe 5de8 92bc
00000020: 947c a33d b169 53bc fd10 aabc c2f6 2dbe
00000030: 0134 2dbc c30f 50be 9f53 f33c 9b31 22be
00000040: b3c5 13bc f0ad 83bd c811 c2bd 0eff 30be
00000050: 1270 0ebc 6f57 9cbd b681 223c 7fca 96bd
00000060: 6179 fa3c d0a4 efbc afca 1dbd e260 b33c
00000070: 88aa 73bb 5189 11be 4600 0abe cdff 3ebc
00000080: 2683 c9be 8208 f63b b960 fdbc c72b 7abe
00000090: 08de ab3c 95fb 16be 3bec dbbc 7e96 db3c
000000a0: a3a7 4abc e964 2b3b 0e67 04bd a753 e6bb
000000b0: ad15 2fbc 8663 b5bd 9490 83be 31fb c0bd
000000c0: 0c7d 7dbd ad73 75bd 539c 44be 4b83 bebc
000000d0: dc52 11bd ad2a c1bc 99a7 48be d2c3 80bd
000000e0: 1999 89be 32f8 b03b 9016 8ebd 09e8 49bc
000000f0: d5d6 b6bc 2f6a 1a3d 3e65 52bc b944 a7bc

conv2.weight f4 [64, 64, 3, 3]
-0.041807782 -0.08038987 -0.093034714 -0.041376017 -0.05722783 -0.043353427 0.004409496 -0.043604575
0.008644831 -0.16898334 -0.015037892 0.036251176 -0.09663293 0.0130051505 0.046909325 -0.06494345
0.04868103 0.03665853 0.008359207 -0.02645852 -0.024335 -0.015727313 0.020000163 -0.045647785
0.048567317 0.095108226 -0.029113082 0.09041765 0.14158386 -0.051006597 0.011490756 0.09524409
-0.031164702 -0.022426317 0.08940145 -0.08659065 -0.053056557 -0.026033277 0.043656137 0.010578072
0.016086092 0.024408812 0.030063407 0.016851038 -0.0407382 -0.0087610185 0.03691769 0.046449613
-0.030618208 0.0061012 0.010107812 -0.06814891 -0.051915623 -0.022257088 0.036511548 0.029689219
-0.0058448496 0.06414967 0.006859216 0.010241499 -0.057906684 -0.04404575 -0.05997232 -0.017899921
0.03027561 0.017909786 0.0168458 0.06133019 -0.009696457 0.096805245 0.08238734 -0.01717484
-0.0015741631 0.0056545166 0.019885113 0.012217945 0.040695716 0.011479483 0.06528979 0.057464372
-0.008698462 0.02563225 0.019128771 -0.039257225 0.050745443 0.048094075 0.004514824 0.080568105
0.057738006 0.0034403913 -0.03805659 -0.0048213685 -0.0021747323 -0.035124704 0.065349944 -0.017579988
0.042314313 0.0029691393 -0.018709823 0.053663217 0.04194958 0.10759272 -0.0019241215 0.042179994
0.04915802 0.05460164 0.042524766 0.07402829 0.02086524 0.05455529 0.039993968 -0.05836497
-0.04458364 -0.022003075 0.02120011 0.0060712188 0.027126638 0.10026327 0.08295304 0.06276975
-0.030668067 0.007934707 -0.0042724735 -0.012309964 0.004408306 0.01577961 0.12144297 -0.00067484716
0.049000233 -0.0047007063 -0.02497713 -0.012415925 0.026417632 0.031348046 -0.007142659 -0.0108221155
-0.0200384 -0.025298223 -0.00033331514 0.041032527 -0.00029240127 -0.004974343 0.028362177 0.052866235
-0.004017385 -0.006123431 -0.0031080141 -0.0032211728 -0.021487232 -0.03756019 -0.034016512 -0.040453188
0.00091829273 -0.020050608 0.0205423 0.05369287 0.049623944 0.04568206 0.036758773 0.022534516
0.0524411 -0.043397423 0.04441139 0.023598535 0.08214389 0.04484246 0.05679351 0.086856194
-0.0035676823 0.044794194 0.067998014 0.066614725 0.036533754 0.079649165 -0.009927367 -0.07075859
0.005862519 0.048628975 -0.06422908 0.019092537 0.08097417 -0.014843066 0.018305229 -0.048704103
-0.07256092 -0.03889979 -0.0058989055 -0.0049917162 -0.020693323 -0.0041664084 -0.00038649677 0.0068195537
0.051054385 0.0032563112 0.019559607 0.037858315 -0.0022637732 -0.009274419 0.010764478 -0.0064159986
0.0047471835 -0.015087339 -0.049421858 -0.020178815 -0.029866187 -0.024235185 0.010044965 0.048572242
0.003760567 -0.0186972 0.00951192 -0.03754127 -0.05256167 -0.023160588 -0.071554184 -0.07765761
-0.004409673 0.0042312006 -0.0036558716 0.028182313 -0.02213956 -0.010001184 -0.01716629 0.033945646
-0.021241637 -0.06978972 -0.025952647 0.05140685 -0.01228787 -0.04291144 0.021330468 0.028568126
0.04108255 0.06965548 0.0472393 0.004936318 0.048267275 -0.00034354939 -0.024172738 -0.027462116
0.030870622 0.0449228 0.0029090259 0.022752885 0.06792644 0.031445134 -0.0027212577 -0.023455929
-0.028208971 0.020973999 0.035831586 -0.03315471 0.014809076 -0.013928868 0.040699124 0.012279095
00000000: a33e 2bbd 72a3 a4bd fc88 bebd e679 29bd
00000010: bb67 6abd 5d93 31bd 897d 903b b69a 32bd
00000020: 0da3 0d3c f809 2dbe 7e61 76bc 1d7c 143d
00000030: 7ce7 c5bd 8e13 553c fe23 403d 1201 85bd
00000040: c265 473d 4127 163d 0ef5 083c 8abf d8bc
00000050: 325a c7bc 91d6 80bc 62d7 a33c 2cf9 3abd
00000060: 86ee 463d 1ac8 c23d 8f7e eebc e42c b93d
00000070: 5cfb 103e 4bec 50bd b943 3c3c 550f c33d
00000080: 1e4d ffbc 65b7 b7bc 1b18 b73d 7056 b1bd
00000090: d551 59bd bd43 d5bc c7d0 323d a64f 2d3c
000000a0: fbc6 833c fdf4 c73c 8947 f63c 300b 8a3c
000000b0: 19dd 26bd 608a 0fbc 0137 173d f341 3e3d
000000c0: 09d3 fabc 93ec c73b 3c9b 253c a891 8bbd
000000d0: 7aa5 54bd 7f54 b6bc 228d 153d ce36 f33c
000000e0: 2786 bfbb e760 833d 46c3 e03b f6cb 273c
000000f0: 8f2f 6dbd 5169 34bd 89a5 75bd dba2 92bc
00000100: 8e04 f83c 8bb7 923c 3400 8a3c 5e35 7b3d
00000110: e3dd 1ebc d441 c63d b2ba a83d 40b2 8cbc
00000120: 2654 ceba 8649 b93b 1be6 a23c c72d 483c
00000130: 8db0 263d 7114 3c3c a7b6 853d c35f 6b3d
00000140: fe83 0ebc b9fa d13c f1b3 9c3c 2fcc 20bd
00000150: 74da 4f3d 4bfe 443d 17f1 933b e400 a53d
00000160: b07e 6c3d 3078 613b 3ae1 1bbd 92fc 9dbb
00000170: f485 0ebb ecde 0fbd 31d6 853d e803 90bc
00000180: c651 2d3d e495 423b 5845 99bc f6cd 5b3d
00000190: 53d3 2b3d 9259 dc3d ce32 fcba eec4 2c3d
000001a0: ec59 493d f8a5 5f3d 732e 2e3d 259c 973d
000001b0: 94ed aa3c 5e75 5f3d b7d0 233d 1b10 6fbd
000001c0: 569d 36bd cb3f b4bc daab ad3c 13f1 c63b
000001d0: af38 de3c d456 cd3d 49e3 a93d 6d8d 803d
000001e0: 993b fbbc 9300 023c 1b00 8cbb bbaf 49bc
000001f0: 8d73 903b 3e44 813c 18b7 f83d 3ae8 30ba
00000200: 78b4 483d 6208 9abb d79c ccbc 2a6c 4bbc
00000210: ca69 d83c cf66 003d f70c eabb 3e4f 31bc
00000220: 9227 a4bc 383e cfbc cdc0 aeb9 b911 283d
00000230: 6f4d 99b9 d0ff a2bb cc57 e83c 448a 583d
00000240: 45a4 83bb 10a7 c8bb d3af 4bbb 501a 53bb
00000250: fe05 b0bc b7d8 19bd e654 0bbd 3eb2 25bd
00000260: 95b9 703a 2c41 a4bc 5348 a83c 0eed 5b3d
00000270: 7a42 4b3d 1d1d 3b3d 5e90 163d 4e9a b83c
00000280: 7bcc 563d 7fc1 31bd b8e8 353d b751 c13c
00000290: 0e3b a83d baac 373d 50a0 683d a9e1 b13d
000002a0: c7cf 69bb 1e7a 373d 8b42 8b3d 4d6d 883d
000002b0: 6ba4 153d 1a1f a33d 65a6 22bc e1e9 90bd
000002c0: 601a c03b 2d2f 473d 898a 83bd f467 9c3c
000002d0: c9d5 a53d 5530 73bc d9f4 953c f47d 47bd
000002e0: d29a 94bd 6355 1fbd 9b4b c1bb 8d91 a3bb
000002f0: 0b85 a9bc 5e86 88bb b8a2 cab9 9076 df3b
00000300: 671e 513d d667 553b 783b a03c 5211 1b3d
00000310: d05b 14bb bcf3 17bc 7e5d 303c 4c3d d2bb
00000320: 438e 9b3b e330 77bc 936e 4abd 0b4e a5bc
00000330: efa9 f4bc de88 c6bc a393 243c b0f3 463d
00000340: d873 763b df2a 99bc e2d7 1b3c e0c4 19bd
00000350: e84a 57bd 46bb bdbc 008b 92bd f40a 9fbd
00000360: 057f 90bb e2a5 8a3b 5997 6fbb 98de e63c
00000370: 065e b5bc 02dc 23bc 52a0 8cbc 970a 0b3d
00000380: f102 aebc eaed 8ebd a59a d4bc fd8f 523d
00000390: 1053 49bc e8c3 2fbd 3cbd ae3c b407 ea3c
000003a0: 2d46 283d 88a7 8e3d ff7d 413d d6c0 a13b
000003b0: e8b3 453d 6b1e b4b9 e805 c6bc 3bf8 e0bc
000003c0: 63e4 fc3c f800 383d 5ba5 3e3b 4264 ba3c
000003d0: 041d 8b3d 9dcc 003d 2157 32bb a626 c0bc
000003e0: 8016 e7bc aad1 ab3c 24c4 123d 3ccd 07bd
000003f0: c4a1 723c e835 64bc 20b4 263d 422e 493c

conv2.bias f4 [64]
-0.012129064 0.005895277 0.030366827 -0.019964477 0.00039221434 -0.023715928 -0.036911868 0.0407578
-0.0008625078 -0.02361558 -0.022199273 0.009913011 0.0020030378 0.028748075 0.02883571 0.017343713
0.029988972 -0.013939145 0.03914203 -0.0010230482 -0.03113712 -0.0044895946 0.032399546 -0.011866731
-0.0014728492 -0.017774023 0.035755362 0.02689488 -0.019311106 -0.009695042 0.017008742 0.00673017
-0.03821582 -0.0143368505 0.017244114 0.027157193 0.004887846 -0.0104422085 -0.015949443 0.0016670084
0.031652715 -0.011428681 0.016748313 0.03451623 -0.033918597 0.017888568 0.033818204 0.016481476
-0.013686796 0.008257425 -0.032247964 -0.024013111 -0.041469574 -0.037904765 0.01914152 0.018688567
-0.033052817 -0.007881185 0.019844472 -0.016149547 0.023010207 0.014118826 -0.006277538 -0.009582085
00000000: fbb8 46bc 2b2d c13b dac3 f83c 8b8c a3bc
00000010: 1ea2 cd39 e847 c2bc e630 17bd a7f1 263d
00000020: eb19 62ba 7675 c1bc 40db b5bc 2f6a 223c
00000030: 6645 033b 1581 eb3c de38 ec3c 6714 8e3c
00000040: 6fab f53c 0361 64bc 6553 203d cd17 86ba
00000050: 4613 ffbc 731d 93bb 63b5 043d ad6c 42bc
00000060: 9e0c c1ba d49a 91bc 3774 123d a752 dc3c
00000070: 5332 9ebc f4d7 1ebc eb55 8b3c c288 dc3b
00000080: 3188 1cbd 1ce5 6abc 8743 8d3c c378 de3c
00000090: 392a a03b cc15 2bbc 68a8 82bc 857f da3a
000000a0: 47a6 013d 5d3f 3bbc c233 893c e460 0d3d
000000b0: 3aee 0abd 0c8b 923c f584 0a3d 2904 873c
000000c0: 953e 60bc 274a 073c 7116 04bd 25b7 c4bc
000000d0: 00dc 29bd 0742 1bbd adce 9c3c c418 993c
000000e0: 6462 07bd 1620 01bc e090 a23c 0e4c 84bc
000000f0: e77f bc3c a652 673c ceb3 cdbb 2dfe 1cbc

bn2.weight f4 [64]
1.0115476 0.9622826 1.0207983 0.98904824 0.9775165 1.0081549 0.95588547 1.026245
0.98932713 0.9882087 0.931351 1.0477483 1.0084277 1.0402809 0.98825 1.0335947
0.9567174 0.9952208 0.98084563 1.0077679 0.96465707 0.9952559 0.9832916 0.98945963
1.0567193 0.9737715 0.96247184 0.93151236 0.9766646 0.9167082 0.97900254 0.9563087
1.0268241 0.97186136 0.9901999 1.0143391 0.98435473 0.95628977 1.0185441 1.0101104
1.0089324 0.9863109 1.0401078 0.9799779 0.97753614 0.9636996 1.0071983 0.9906768
1.0042083 0.9886454 0.99552345 1.0209368 1.1348282 1.0167236 0.9648108 1.0077816
1.0127671 1.0316656 0.99395335 0.97025627 1.0124159 1.0488621 0.98897165 0.9824052
00000000: 647a 813f 2758 763f 85a9 823f 4432 7d3f
00000010: 853e 7a3f 380b 813f e9b4 743f ff5b 833f
00000020: 8b44 7d3f 3ffb 7c3f 056d 6e3f 9e1c 863f
00000030: 2914 813f ed27 853f f4fd 7c3f d54c 843f
00000040: 6eeb 743f cac6 7e3f b318 7b3f 8afe 803f
00000050: c4f3 763f 17c9 7e3f 00b9 7b3f 3a4d 7d3f
00000060: 9442 873f 1749 793f 8e64 763f 9877 6e3f
00000070: b106 7a3f 63ad 6a3f e99f 7a3f a6d0 743f
00000080: f96e 833f e8cb 783f be7d 7d3f ddd5 813f
00000090: acfe 7b3f 68cf 743f a75f 823f 4c4b 813f
000000a0: b224 813f df7e 7c3f 4122 853f d5df 7a3f
000000b0: cf3f 7a3f 04b5 763f e0eb 803f ff9c 7d3f
000000c0: e689 803f dd17 7d3f a0da 7e3f 0fae 823f
000000d0: 0d42 913f 0024 823f d7fd 763f fdfe 803f
000000e0: 5aa2 813f 9e0d 843f ba73 7e3f b762 783f
000000f0: d896 813f 1d41 863f 3f2d 7d3f e87e 7b3f

bn2.bias f4 [64]
-0.105881594 -0.11443623 -0.11488812 0.08696315 -0.09039768 -0.14271651 -0.09431962 -0.10013824
-0.1690031 -0.20155211 -0.16713007 -0.15779291 -0.12755606 -0.06282117 -0.15569066 -0.16168761
-0.17370307 0.007865616 -0.14812806 -0.13147786 -0.15632504 -0.11807837 -0.043110337 -0.0071331924
0.05305057 -0.10595373 -0.19315326 -0.08191202 -0.069015056 -0.1070364 0.016055718 -0.057998214
-0.1327507 -0.18289305 -0.1273732 0.04753558 -0.09296417 -0.033764645 -0.023302758 -0.19250548
-0.08776574 -0.1625597 -0.17672797 -0.13513166 -0.1484996 -0.17758536 -0.021195024 -0.050095662
-0.20214693 -0.038914174 -0.14259318 -0.14966173 -0.21585833 -0.18711814 -0.18254651 -0.14989309
-0.18131839 -0.08688949 -0.09901598 -0.067124315 -0.14327013 -0.18468052 -0.10978548 -0.086724296
00000000: 73d8 d8bd 8b5d eabd 764a ebbd bc19 b23d
00000010: 6b22 b9bd 4724 12be a52a c1bd 4715 cdbd
00000020: 260f 2dbe ad63 4ebe 2524 2bbe 7794 21be
00000030: 0e9e 02be 63a8 80bd 5f6d 1fbe 7091 25be
00000040: 38df 31be c9de 003c e2ae 17be 22a2 06be
00000050: ac13 20be 13d3 f1bd 7794 30bd 8ebd e9bb
00000060: 8e4b 593d 45fe d8bd f8c9 45be 7dc1 a7bd
00000070: c457 8dbd e635 dbbd 4887 833c 898f 6dbd
00000080: cdef 07be 5148 3bbe 1f6e 02be abb4 423d
00000090: 0064 bebd cc4c 0abd 6de5 bebc 2820 45be
000000a0: 86be b3bd 0d76 26be 2df8 34be f45f 0abe
000000b0: 4710 18be f0d8 35be 30a1 adbc 1c31 4dbd
000000c0: 9bff 4ebe 7864 1fbd f203 12be ed40 19be
000000d0: f709 5dbe e69b 3fbe 79ed 3abe 937d 19be
000000e0: 87ab 39be 1ef3 b1bd e4c8 cabd 7978 89bd
000000f0: 68b5 12be e41c 3dbe 36d7 e0bd 829c b1bd

bn2.running_mean f4 [64]
-0.005894505 -0.0068425164 -0.02569148 -0.02175796 0.004502245 -0.054993734 -0.051905088 0.0431287
0.004911097 -0.06868687 -0.098297395 0.028046688 -0.074214816 0.063973226 0.050896414 0.033602457
0.03305923 -0.065552644 0.008773117 0.02357429 -0.04072165 -0.02573017 0.0022776788 -0.10910056
0.016937377 0.0064217476 0.04472567 -0.063431375 -0.08687828 0.028472057 0.046464384 -0.041244123
0.029182611 0.0056266454 0.028918613 0.070366606 -0.046594594 -0.052326486 -0.0022550684 0.041046046
0.029928818 0.058633294 0.04152593 0.038191393 -0.093380004 -0.01430305 0.045881975 -0.00081776374
0.009190697 0.038555093 -0.0997901 -0.025174355 -0.07212964 6.742046e-05 0.056613088 0.038059417
-0.059912644 -0.035859097 0.012022596 -0.026994053 -0.040138107 0.013531834 -0.03758528 0.0041914894
00000000: b126 c1bb 3037 e0bb f076 d2bc c03d b2bc
00000010: 9287 933b 1c41 61bd 6e9a 54bd b8a7 303d
00000020: 45ed a03b b4ab 8cbd 2550 c9bd 2bc2 e53c
00000030: f0fd 97bd 6504 833d c278 503d bba2 093d
00000040: 1d69 073d 7740 86bd 1fbd 0f3c df1e c13c
00000050: bfcb 26bd 14c8 d2bc 1c45 153b 1d70 dfbd
00000060: 41c0 8a3c 866d d23b 4432 373d 4fe8 81bd
00000070: 3ded b1bd 3b3e e93c 7051 3e3d 99ef 28bd
00000080: 5f10 ef3c b95f b83b bae6 ec3c 5e1c 903d
00000090: f9d9 3ebd 4c54 56bd c5c9 13bb e61f 283d
000000a0: 482d f53c 7729 703d 1817 2a3d 946e 1c3d
000000b0: 043e bfbd 5757 6abc bdee 3b3d 325f 56ba
000000c0: 9494 163c f2eb 1d3d c05e ccbd 733a cebc
000000d0: b4b8 93bd 1564 8d38 20e3 673d 31e4 1b3d
000000e0: f666 75bd fde0 12bd 6cfa 443c a222 ddbc
000000f0: db67 24bd a0b4 5d3c 06f3 19bd c358 893b

bn2.running_var f4 [64]
0.0012702922 0.076953255 0.05693309 0.009017164 0.17319421 0.13690677 0.089671716 0.04072221
0.09862915 0.11047669 0.015756823 0.11647082 0.03988874 0.0005085109 0.11082208 0.07504081
0.102975555 0.034899127 0.16686475 0.030374903 0.19133511 0.010866162 0.07307864 0.062038876
0.014050131 0.0015494975 0.18946248 0.124224216 0.03702454 0.027869118 0.0056835925 0.018938938
0.06184644 0.15975031 0.19008912 0.0018093669 0.027294258 0.014545401 0.077135496 0.114510044
0.060265496 0.22864698 0.08058723 0.10562873 0.13182794 0.10708791 0.0058894954 0.0008023647
0.071578346 0.06969449 0.077925615 0.041393112 0.0007436644 0.19365051 0.12603447 0.073623
0.15202853 0.05066593 0.115344316 0.021347767 0.22130582 0.059875216 0.0700101 0.03191415
00000000: ef7f a63a ab99 9d3d ac32 693d babc 133c
00000010: d359 313e 4a31 0c3e cea5 b73d 55cc 263d
00000020: 14fe c93d 9a41 e23d 7414 813c 4188 ee3d
00000030: 6062 233d 974d 053a b0f6 e23d ffae 993d
00000040: d9e4 d23d 63f2 0e3d 98de 2a3e cad4 f83c
00000050: 5aed 433e fd07 323c 41aa 953d 7a1c 7e3d
00000060: 8532 663c 8218 cb3a 7402 423e 4469 fe3d
00000070: 0ba7 173d c74d e43c 6e3d ba3b d525 9b3c
00000080: b152 7d3d 9695 233e b9a6 423e 4728 ed3a
00000090: 3598 df3c d54f 6e3c 37f9 9d3d 3e84 ea3d
000000a0: f4d8 763d 6f22 6a3e eb0a a53d e053 d83d
000000b0: e7fd 063e e850 db3d abfc c03b c955 523a
000000c0: ab97 923d fcbb 8e3d 7797 9f3d d38b 293d
000000d0: 79f2 423a 524c 463e 2e0f 013e a8c7 963d
000000e0: 5ead 1b3e 1487 4f3d a439 ec3d 83e1 ae3c
000000f0: fe9d 623e b73f 753d 7561 8f3d 69b8 023d

conv3.weight f4 [64, 64, 3, 3]
-0.04801681 -0.062175475 -0.08923801 -0.011986566 -0.015809268 0.01530433 0.038576808 -0.009904167
0.052566014 0.029174227 0.044240166 0.015374694 -0.02969336 0.014917149 -0.048549514 -0.0013251015
-0.009242251 0.02397572 -0.0016253104 0.031675033 -0.0137351 -0.037656948 -0.03702874 -0.0051145763
-0.01155545 -0.030297987 0.025324741 -0.014034146 -0.07253499 -0.024517052 -0.013935042 0.010569998
-0.041354813 -0.0012987631 0.006854883 0.008613849 -0.040494397 -0.05611043 -0.04761028 0.037662875
-0.024306137 -0.004299419 0.052472144 0.016057434 -0.00037974978 -0.03922552 0.020260477 -0.033903196
-0.057722975 -0.0217928 -0.030211786 -0.06499693 -0.024144411 -0.054030374 -0.053640828 -0.030961463
-0.022001527 0.011195672 -0.053571288 -0.046388935 0.005674987 -0.00033350466 0.041627623 0.019086866
0.024111398 0.050794188 -0.0015788828 0.030627087 -0.012827047 0.020147586 -0.01569664 -0.012509209
0.06207736 -0.0008858206 0.002733453 -0.017576683 -0.03663821 -0.021970527 0.013589348 -0.011235148
-0.057737023 -0.004832575 0.042584013 0.03857826 -0.03168654 -0.0039576567 -0.03337775 -0.028178688
-0.028271353 -0.006434953 -0.07985302 -0.020051464 -0.040082328 -0.05873821 -0.022406394 -0.043602046
-0.033673402 -0.009369763 0.022706341 0.03945903 -0.025092367 -0.028576931 -0.00641305 -0.072680615
-0.012136587 -0.008257912 0.0058346963 0.00823103 -0.018127361 -0.020665316 -0.016196216 0.011348766
0.015677134 -0.01123145 -0.011966208 -0.0028890818 0.016907798 -0.04028111 -0.06240626 -0.0820649
0.049120955 -0.014227962 -0.05437289 0.09755948 0.038933277 0.054439448 -0.0177582 -0.029465305
0.012609073 0.009662488 -0.05436493 0.016838986 0.051271223 0.022273717 0.004110726 0.016884467
0.010402454 -0.0039566546 0.011190253 -0.027536888 0.024414936 -0.017935602 -0.0073895156 -0.024117544
-0.022950383 0.038090024 -0.019423906 -0.010821483 0.0036634454 -0.033071417 -0.060322944 -0.080511615
-0.042631444 0.052514683 0.00011778384 0.03047704 0.069979005 0.07950692 0.0065370486 0.010269306
0.016178926 0.016586132 -0.0019043817 -0.01769062 -0.018208792 -0.0023562438 -0.034405556 -0.025714824
0.009297054 -0.016068393 0.014874294 0.06304666 0.017517548 0.030491764 -0.015985511 -0.0020130787
-0.021598436 -0.041258633 -0.067144856 -0.08474052 -0.027374031 -0.036576156 -0.023586929 -0.03358349
0.0033271993 -0.001426952 -0.016708095 0.043176606 0.020466043 0.01615657 0.035507284 0.0026177254
0.025526833 -0.011198335 0.028691387 -0.020824555 -0.06292697 0.0010635788 -0.035894375 -0.026673263
-0.015149844 -0.034684297 -0.021417474 -0.02976251 0.025433555 0.03164125 0.05672891 -0.06360019
-0.11153687 -0.08710946 -0.011117582 -0.013082623 -0.0494441 -0.042346764 0.0090352995 -0.015774466
0.0030291127 0.029006511 0.015875954 -0.03774546 -0.0029460865 0.028109586 -0.09354883 -0.057348967
-0.050411858 -0.08719561 -0.11171318 -0.16127147 -0.011838487 -0.01513019 -0.035771567 0.049530152
0.051076178 0.06345693 0.03579346 0.020856448 -0.012982713 -0.021139298 0.017562443 -0.011089921
-0.050386447 -0.062444642 -0.030593911 -0.044238802 0.01025279 -0.020782363 0.010253274 -0.008574088
-0.015715614 0.024962131 -0.021036291 -0.025457235 -0.0067401514 0.03222182 -0.028719667 0.047299862
00000000: 46ad 44bd b6ab 7ebd 6bc2 b6bd 4d63 44bc
00000010: 7082 81bc 03bf 7a3c b702 1e3d 1645 22bc
00000020: 764f 573d cafe ee3c 2d35 353d 24e6 7b3c
00000030: 7d3f f3bc 0f67 743c dbdb 46bd 07af adba
00000040: cf6c 17bc bb68 c43c 5e08 d5ba aebd 013d
00000050: 2f09 61bc 2c3e 1abd 73ab 17bd 2d98 a7bb
00000060: 1253 3dbc 7c33 f8bc d575 cf3c 7aef 65bc
00000070: 3a8d 94bd fcd7 c8bc cd4f 64bc c92d 2d3c
00000080: aa63 29bd 423b aaba ed9e e03b 1a21 0d3c
00000090: 74dd 25bd 0dd4 65bd ff02 43bd 6344 1a3d
000000a0: aa1d c7bc 24e2 8cbb 08ed 563d e18a 833c
000000b0: 2719 c7b9 f0aa 20bd 4df9 a53c 14de 0abd
000000c0: ed6e 6cbd d086 b2bc b57e f7bc 1c1d 85bd
000000d0: 80ca c5bc f44e 5dbd 7cb6 5bbd e5a2 fdbc
000000e0: 8c3c b4bc 0d6e 373c 916d 5bbd 5302 3ebd
000000f0: 3ef5 b93b 3dda aeb9 ba81 2a3d 0f5c 9c3c
00000100: 4485 c53c 910d 503d 84f2 ceba a8e5 fa3c
00000110: 8928 52bc 8d0c a53c 3d96 80bc 6df3 4cbc
00000120: d444 7e3d 6a36 68ba bb23 333b fafc 8fbc
00000130: f311 16bd 89fb b3bc dba5 5e3c a013 38bc
00000140: a87d 6cbd 945a 9ebb 936c 2e3d 3d04 1e3d
00000150: bfc9 01bd 3baf 81bb 1cb7 08bd fed6 e6bc
00000160: 5399 e7bc 4cdc d2bb fb89 a3bd f842 a4bc
00000170: 5e2d 24bd 7a97 70bd 9d8d b7bc 0f98 32bd
00000180: 1fed 09bd a283 19bc a602 ba3c cb9f 213d
00000190: 828e cdbc 2b1a eabc 9024 d2bb 93d9 94bd
000001a0: 89d8 46bc 314c 07bc fb30 bf3b 71db 063c
000001b0: d57f 94bc 4f4a a9bc edad 84bc 2df0 393c
000001c0: 556d 803c 1e04 38bc ea0d 44bc c056 3dbb
000001d0: 3982 8a3c cefd 24bd b59d 7fbd a411 a8bd
000001e0: 0e33 493d 661c 69bc 1cb6 5ebd 44cd c73d
000001f0: 8078 1f3d e6fb 5e3d a579 91bc 3961 f1bc
00000200: 4996 4e3c 694f 1e3c c3ad 5ebd eaf1 893c
00000210: c601 523d 5f77 b63c 45b3 863b 4b51 8a3c
00000220: 0e6f 2a3c d3a6 81bb 5357 373c 0a95 e1bc
00000230: d501 c83c afed 92bc c023 f2bb 2892 c5bc
00000240: 7102 bcbc 4904 1c3d e21e 9fbc 974c 31bc
00000250: 6a16 703b e575 07bd 3115 77bd 46e3 a4bd
00000260: 4f9e 2ebd a319 573d b802 f738 fcaa f93c
00000270: 2751 8f3d 86d4 a23d bd34 d63b 9740 283c
00000280: ab89 843c a4df 873c 729c f9ba ebeb 90bc
00000290: 9b2a 95bc 366b 1abb d7ec 0cbd e5a7 d2bc
000002a0: ac52 183c dda1 83bc 50b3 733c 9b1e 813d
000002b0: f680 8f3c ddc9 f93c 0cf4 82bc dbed 03bb
000002c0: 34ef b0bc d0fe 28bd 3e83 89bd 708c adbd
000002d0: 813f e0bc e1d0 15bd 6039 c1bc d78e 09bd
000002e0: 240d 5a3b 9008 bbba 6adf 88bc f4d9 303d
000002f0: 67a8 a73c c85a 843c 1670 113d 258e 2b3b
00000300: a61d d13c 3979 37bc 330a eb3c 4298 aabc
00000310: dbdf 80bd c867 8b3a fb05 13bd e381 dabc
00000320: 0d37 78bc 1f11 0ebd b373 afbc 82d0 f3bc
00000330: 085a d03c 419a 013d 935c 683d d140 82bd
00000340: 716d e4bd 7266 b2bd 8526 36bc 7f58 56bc
00000350: e685 4abd cd73 2dbd cb08 143c 7439 81bc
00000360: 1484 463b 109f ed3c 4a0e 823c fc9a 1abd
00000370: 2113 41bb 1346 e63c 8796 bfbd c0e6 6abd
00000380: aa7c 4ebd 9d93 b2bd e1c9 e4bd 5924 25be
00000390: 37f6 41bc 9ee4 77bc 3585 12bd 21e0 4a3d
000003a0: 4135 513d b5f5 813d 2a9c 123d 24db aa3c
000003b0: 72b5 54bc 522c adbc 1ddf 8f3c 80b2 35bc
000003c0: 0562 4ebd f4c5 7fbd 15a0 fabc bf33 35bd
000003d0: 51fb 273c c63f aabc 59fd 273c 557a 0cbc
000003e0: 08be 80bc 627d cc3c 4d54 acbc b18b d0bc
000003f0: 7ddc dcbb 07fb 033d 8245 ebbc 80bd 413d

conv3.bias f4 [64]
-0.01629039 -0.0050789015 0.034391724 0.036764078 -0.031479493 -0.033968944 -0.02426638 -0.0039762002
-0.031207606 0.014244203 -0.03128708 0.030872207 -0.0227644 0.036540218 -0.03513371 -0.033141445
0.042062208 -0.0070866304 0.0066341734 0.012448869 0.012113183 0.04668437 0.000800611 0.039006032
-0.036665414 -0.007844108 0.038380552 -0.01846001 0.023387231 0.005111025 0.040819813 -0.038606025
-0.020403977 -0.022565152 -0.00090896344 0.031717762 -0.039125577 -0.015979216 -0.01807171 -0.026652142
-0.046060763 0.0033066503 0.011085076 0.034884922 -0.038987927 0.029732771 -0.0370701 0.022225542
0.03481321 0.0238969 0.03510343 -0.010081987 0.01365542 0.035900768 -0.025395242 0.016638722
-0.027550038 -0.030389572 0.0039394964 0.029988952 -0.009401483 -0.02974673 0.001414333 0.0195796
00000000: 6d73 85bc ea6c a6bb 56de 0c3d ee95 163d
00000010: a4f0 00bd 0523 0bbd 4aca c6bc c94a 82bb
00000020: 18a7 ffbc 8560 693c e226 00bd b6e7 fc3c
00000030: 687c babc 32ab 153d 5de8 0fbd 53bf 07bd
00000040: 6c49 2c3d f736 e8bb 7b63 d93b 57f6 4b3c
00000050: 5f76 463c 1c38 3f3d 18e0 513a cac4 1f3d
00000060: 792e 16bd 9384 00bc ed34 1d3d 7239 97bc
00000070: 9496 bf3c 637a a73b ad32 273d 5a21 1ebd
00000080: 3e26 a7bc 8eda b8bc 8147 6eba 7cea 013d
00000090: 2442 20bd d8e6 82bc 1f0b 94bc 9855 dabc
000000a0: 36aa 3cbd 63b4 583b 2e9e 353c 7ee3 0e3d
000000b0: ceb1 1fbd 2492 f33c d1d6 17bd 5712 b63c
000000c0: 4c98 0e3d 6ec3 c33c 9dc8 0f3d eb2e 25bc
000000d0: fcba 5f3c af0c 133d af09 d0bc ee4d 883c
000000e0: 9eb0 e1bc 8df3 f8bc e416 813b 64ab f53c
000000f0: ae08 1abc 6aaf f3bc 2461 b93a 6665 a03c

bn3.weight f4 [64]
0.870312 0.8511686 0.82143295 0.8012407 0.8446994 0.7838993 0.8689475 0.8212447
0.8254758 0.90847135 0.86840165 0.84226847 0.7603223 0.83182603 0.8211973 0.86604184
0.8133123 0.8876551 0.84199786 0.8299745 0.8333885 0.8794574 0.8248784 0.8558221
0.81959134 0.8136598 0.81463677 0.8505875 0.84894735 0.8561712 0.8400378 0.79645264
0.8666109 0.86823195 0.8740437 0.8703948 0.83312905 0.8757592 0.8331189 0.8066869
0.85262877 0.841409 0.8309197 0.8194881 0.81685084 0.8546321 0.8872333 0.8796948
0.90257573 0.8799227 0.88743544 0.854089 0.86028343 0.81359375 0.8932766 0.83064705
0.83108264 0.8241147 0.873975 0.8355605 0.82755697 0.8059412 0.8478904 0.8549204
00000000: c4cc 5e3f 2fe6 593f 6e49 523f 1c1e 4d3f
00000010: 383e 583f a0ad 483f 5873 5e3f 183d 523f
00000020: 6252 533f 9491 683f 924f 5e3f e89e 573f
00000030: 7ba4 423f 8df2 543f fc39 523f ebb4 5d3f
00000040: 3c35 503f 5d3d 633f 2c8d 573f 3579 543f
00000050: f358 553f 1f24 613f 3b2b 533f 2817 5b3f
00000060: bdd0 513f 024c 503f 098c 503f 1ac0 593f
00000070: 9d54 593f 092e 5b3f b80c 573f 52e4 4b3f
00000080: 36da 5d3f 7344 5e3f 54c1 5f3f 32d2 5e3f
00000090: f247 553f c131 603f 4847 553f 0883 4e3f
000000a0: e145 5a3f 9566 573f 27b7 543f f9c9 513f
000000b0: 231d 513f 2bc9 5a3f b921 633f ae33 613f
000000c0: 340f 673f 9d42 613f f82e 633f 94a5 5a3f
000000d0: 893b 5c3f ae47 503f c6ad 643f 49a5 543f
000000e0: d5c1 543f 2ef9 523f d3bc 5f3f 4be7 553f
000000f0: c6da 533f 2a52 4e3f 580f 593f 10dc 5a3f

bn3.bias f4 [64]
-0.16920535 -0.20111334 -0.18236266 -0.19840795 -0.1030513 -0.13239646 -0.14011317 -0.20579244
-0.20938483 -0.10309083 -0.11371479 -0.1952359 -0.16308784 -0.16405423 -0.13742554 -0.15214197
-0.1632856 -0.19355497 -0.14735879 -0.07992533 -0.12620537 -0.072469406 -0.18104933 -0.15506671
-0.13747828 -0.07765178 -0.13708016 -0.14276493 -0.18218213 -0.108826794 -0.13176593 -0.15263322
-0.15595412 -0.14599667 -0.13204382 -0.1145591 -0.19559486 -0.13137393 -0.13812709 -0.17291406
-0.15201487 -0.13454248 -0.17192535 -0.13075183 -0.17754857 -0.15878181 -0.17674524 -0.093453735
-0.07517521 -0.0836991 -0.13466154 -0.22576797 -0.18951645 -0.12323974 -0.089054726 -0.1745333
-0.14336161 -0.17963307 -0.18100233 -0.17114516 -0.16162404 -0.17847028 -0.1393028 -0.18054202
00000000: 2b44 2dbe a8f0 4dbe 47bd 3abe 742b 4bbe
00000010: 8f0c d3bd f092 07be d479 0fbe 41bb 52be
00000020: fa68 56be 4921 d3bd 4de3 e8bd ebeb 47be
00000030: 8000 27be d5fd 27be 48b9 0cbe 1bcb 1bbe
00000040: 5734 27be 4633 46be 39e5 16be e4af a3bd
00000050: fb3b 01be d76a 94bd ff64 39be cfc9 1ebe
00000060: 1bc7 0cbe e507 9fbd be5e 0cbe f830 12be
00000070: f48d 3abe 95e0 debd a6ed 06be e24b 1cbe
00000080: 70b2 1fbe 2780 15be 7f36 07be f69d eabd
00000090: 054a 48be e386 06be 3071 0dbe 6210 31be
000000a0: c9a9 1bbe 81c5 09be 330d 30be cfe3 05be
000000b0: 4bcf 35be b397 22be b4fc 34be ac64 bfbd
000000c0: 76f5 99bd 6f6a abbd b7e4 09be b82f 67be
000000d0: 9a10 42be 1e65 fcbd 5362 b6bd dbb8 32be
000000e0: 63cd 12be bbf1 37be ad58 39be ad40 2fbe
000000f0: c680 25be eac0 36be 65a5 0ebe 02e0 38be

bn3.running_mean f4 [64]
-0.64147407 -0.5178404 -0.4626503 -0.32034376 -0.48133388 -0.8640922 -0.33401784 -0.8864837
-0.5853288 -0.57670444 -0.7950412 -0.43819213 -0.7529622 -0.46893564 -0.5201157 -0.4690626
-0.49986726 -0.2828518 -0.5509866 -0.86927307 -0.61215866 -1.3482839 -0.8029003 -0.4242798
-0.6659582 -0.42872247 -0.39363995 -0.76557577 -0.4150464 -0.6856692 -0.78754854 -0.25704077
-0.6149655 -0.53286076 -0.44938093 -0.5265731 -0.8427368 -0.35932937 -0.5498321 -0.5728176
-0.37617433 -0.69271976 -0.5319418 -0.56504 -0.57345814 -0.47042438 -0.39887604 -0.80238086
-1.1663178 -0.89819175 -0.64128274 -0.33608708 -0.34421796 -0.6211305 -1.1391419 -0.44718063
-1.0015222 -0.6884095 -0.47368523 -0.5362029 -0.75264364 -0.5825677 -0.5745784 -0.8464935
00000000: a537 24bf 3091 04bf 80e0 ecbe 1904 a4be
00000010: 6571 f6be 2535 5dbf 6304 abbe 99f0 62bf
00000020: 1cd8 15bf e7a2 13bf d287 4bbf b85a e0be
00000030: 21c2 40bf 5518 f0be 4d26 05bf f928 f0be
00000040: 9aee ffbe f3d1 90be 750d 0dbf ae88 5ebf
00000050: 6eb6 1cbf 9194 acbf e08a 4dbf 343b d9be
00000060: 3d7c 2abf 8381 dbbe 2d8b c9be c6fc 43bf
00000070: f680 d4be 0488 2fbf c89c 49bf d99a 83be
00000080: 616e 1dbf 9069 08bf 4215 e6be 7fcd 06bf
00000090: 99bd 57bf 05fa b7be ccc1 0cbf 2da4 12bf
000000a0: ec99 c0be 1556 31bf 562d 08bf 76a6 10bf
000000b0: 27ce 12bf 77db f0be 7b39 ccbe d568 4dbf
000000c0: e749 95bf e5ef 65bf 1b2b 24bf 9b13 acbe
000000d0: 563d b0be 6902 1fbf 67cf 91bf dcf4 e4be
000000e0: e131 80bf 9b3b 30bf df86 f2be 9844 09bf
000000f0: 41ad 40bf 2823 15bf 9217 13bf ccb3 58bf

bn3.running_var f4 [64]
14.0278225 12.670416 12.49647 26.107557 38.503414 37.222607 12.055276 15.683592
20.546787 16.489412 40.831055 5.967325 40.571007 31.80369 39.618893 28.916939
28.400969 3.1305103 23.292824 50.600952 41.24089 141.34052 45.64693 8.690502
35.320515 6.2956586 10.993568 44.44314 10.074632 46.56209 36.2386 16.75143
25.35636 25.689903 15.87116 16.841562 39.980503 23.5802 18.208006 16.129272
12.803373 30.435946 15.851703 17.998716 13.760187 10.181396 5.186984 45.8742
98.33215 41.59021 23.327112 4.1375937 13.935284 34.500298 55.08735 13.591573
60.413307 44.75062 12.3248005 20.131605 64.108765 15.066417 8.999657 47.53922
00000000: f671 6041 06ba 4a41 8bf1 4741 47dc d041
00000010: 7f03 1a42 f3e3 1442 69e2 4041 feef 7a41
00000020: d25f a441 51ea 8341 0053 2342 54f4 be40
00000030: b648 2242 f56d fe41 bf79 1e42 e455 e741
00000040: 2f35 e341 485a 4840 b457 ba41 6067 4a42
00000050: acf6 2442 2c57 0d43 7596 3642 4c0c 0b41
00000060: 3548 0d42 0976 c940 a8e5 2f41 c6c5 3142
00000070: b131 2141 953f 3a42 54f4 1042 ee02 8641
00000080: d3d9 ca41 ec84 cd41 45f0 7d41 85bb 8641
00000090: 09ec 1f42 40a4 bc41 ffa9 9141 c008 8141
000000a0: 9eda 4c41 d17c f341 93a0 7d41 5ffd 8f41
000000b0: ba29 5c41 ffe6 2241 c6fb a540 2e7f 3742
000000c0: 10aa c442 605c 2642 ed9d ba41 2b67 8440
000000d0: ecf6 5e41 4e00 0a42 7259 5c42 1577 5941
000000e0: 3aa7 7142 a300 3342 6232 4541 870d a141
000000f0: b037 8042 0b10 7141 98fe 0f41 2928 3e42

conv4.weight f4 [3, 64, 9, 9]
0.008546093 0.016009122 0.007985525 -0.00037988834 0.019563869 0.0069801146 0.006384531 0.0045636115
0.008882446 0.0038184868 -0.01432364 -0.033538416 -0.019558495 -0.009571634 -0.013608502 -0.014484615
-0.017176453 0.006628361 -0.011940478 -0.0066180974 -0.038842775 -0.014118543 -0.004672253 -0.030930676
-0.013468561 -0.028372861 0.0021787565 -0.0024496631 -0.006500829 -0.0025658822 0.01702297 0.015676344
-0.005588087 -0.014561867 0.0048022894 0.0045388173 0.0019058675 0.0063848007 0.016362278 0.020333495
0.010064608 0.001983335 -0.00076316006 0.0047557647 -0.0059480206 0.0154100405 0.021500373 0.011319403
0.023407608 0.025923183 0.01738014 0.022027893 0.014953657 0.0059255473 0.015344054 0.0141580915
0.01216475 0.020885693 0.020565435 0.013521065 -0.0019738073 0.015013215 0.01107854 -0.012048173
-0.0008460703 -0.013568742 0.011197407 -0.0060206703 -0.008079342 -0.0007153374 -0.0052858456 -0.0130653
-0.001226255 -0.0025061306 -0.01808573 -0.014956755 -0.025496893 -0.024105266 -0.007233835 -0.02393065
0.0030028836 -5.4579403e-05 0.010776682 -0.012027325 -0.004011248 0.042911906 -0.005679631 -0.012919569
-0.0045179822 0.010318577 0.010114919 0.0032413218 0.00296298 -0.015215872 0.024786104 -0.007165297
0.0012808306 0.003086722 0.004708392 0.0027101717 0.0028414736 -0.005007354 0.012477133 0.0030034431
-0.0033972263 -0.0042233295 0.0034618261 0.0064143552 -0.001288787 -0.00032754577 -0.0031362479 -0.010729288
0.030641304 -0.004357516 -0.00043964954 -0.007952413 0.0046898765 0.0054354444 0.00045106208 -0.011831975
0.008052809 0.017112918 0.010228649 -0.0071066576 -0.0023199948 0.000846164 0.00851597 -0.0006573192
0.0020211292 -0.0014032873 0.0346815 -0.0029058484 0.0008723106 -0.005436187 0.002900779 0.002927099
-0.007248242 -0.01989134 -0.022027059 0.027248222 -0.007706746 -0.014060119 -0.012158283 -0.005386658
0.0064075836 0.0062461677 -0.020095 0.0046539484 0.0393256 0.006178139 0.014436125 -0.00838178
0.0056395615 0.0051913597 -0.00507933 -0.0135054765 -0.026232863 0.04540879 -0.020869816 -0.0073601287
-0.0022066538 -0.0009807125 0.008457392 -0.0036379865 -0.008313374 -0.0096753705 0.036844235 -0.008979813
-0.003274447 -0.0017817968 0.01249761 -0.0015496967 0.001836509 -0.012432684 -0.0067206738 0.006984688
-0.0046683378 -0.005911136 -0.00702651 0.0091062 0.0038092004 0.00045060372 -0.00195545 -0.014103704
0.0140407635 -3.319219e-05 -0.0034323463 -0.0056631155 0.015479704 0.011740951 0.003384141 -0.007550295
-0.0026011402 0.0034951386 -8.574887e-05 -0.004887635 -0.00492601 0.018479291 -0.003349951 -0.00606539
-0.005579856 -0.010046921 0.012222219 -0.01948495 -0.0004584503 8.689062e-05 0.012206487 -0.004102777
-0.001887528 -0.011155044 -0.01219717 0.019095352 -0.0038031475 -0.004371874 0.0041303476 0.020824157
-0.01319699 -0.017930347 -0.013727352 0.0057631806 0.04658181 -0.0033805917 -0.0047402075 0.001599154
0.0066155093 0.0071505713 -0.0018133473 -0.0059747654 -0.018107336 0.032999087 -0.020709435 -0.001784042
-0.008791065 0.007574711 -0.003856171 -0.0031526852 -0.010396308 -0.0071556633 0.025122505 -0.003648023
-0.014526289 -0.0055358214 0.0025203724 0.0049339044 0.001501094 0.006334981 -0.025039798 -0.010862875
0.019172592 -0.020150086 -0.020717539 -0.0019185636 -0.0016255644 0.018266896 0.0054512797 -0.008642985
00000000: e904 0c3c 9025 833c b8d5 023c c02b c7b9
00000010: 6844 a03c 72b9 e43b 5435 d13b 598a 953b
00000020: ae87 113c 943f 7a3b b3ad 6abc 945f 09bd
00000030: 2339 a0bc 58d2 1cbc 32f6 5ebc e150 6dbc
00000040: a2b5 8cbc b932 d93b ffa1 43bc a0dc d8bb
00000050: 9a19 1fbd 7651 67bc b319 99bb 5462 fdbc
00000060: 3dab 5cbc 346e e8bc 78c9 0e3b 878a 20bb
00000070: e804 d5bb 5c28 28bb c173 8b3c ad6b 803c
00000080: 451c b7bb e694 6ebc 865c 9d3b 5cba 943b
00000090: 4dce f93a 9737 d13b 2f0a 863c 6e92 a63c
000000a0: 07e6 243c d7fa 013b ce0e 48ba 3fd6 9b3b
000000b0: 9de7 c2bb 657a 7c3c 8d21 b03c 0475 393c
000000c0: 50c1 bf3c db5c d43c cc60 8e3c d773 b43c
000000d0: 2f00 753c 182b c23b a165 7b3c 57f7 673c
000000e0: a94e 473c 7918 ab3c d878 a83c 7587 5d3c
000000f0: fe5a 01bb fdf9 753c c482 353c b365 45bc
00000100: d1ca 5dba 6e4f 5ebc 5475 373c 0b49 c5bb
00000110: 375f 04bc 7b85 3bba e334 adbb d70f 56bc
00000120: 4aba a0ba e53d 24bb 8628 94bc 2d0d 75bc
00000130: dcde d0bc 6878 c5bc ce09 edbb 360a c4bc
00000140: 07cc 443b 30ec 64b8 ae90 303c 420e 45bc
00000150: c970 83bb 65c4 2f3d 331c babb 9aac 53bc
00000160: 950b 94bb 400f 293c 0cb9 253c 5b6c 543b
00000170: 8e2e 423b fe4b 79bc 3a0c cb3c deca eabb
00000180: 8be1 a73a 9a4a 4a3b db48 9a3b 239d 313b
00000190: 0438 3a3b bb14 a4bb e46c 4c3c 6ad5 443b
000001a0: 00a4 5ebb db63 8abb cedf 623b 832f d23b
000001b0: 84ec a8ba 73ba abb9 8289 4dbb e5c9 2fbc
000001c0: 7903 fb3c 7ec9 8ebb c380 e6b9 d64a 02bc
000001d0: 89ad 993b d01b b23b 877c ec39 e6da 41bc
000001e0: eeef 033c 6430 8c3c 1096 273c f7de e8bb
000001f0: 0e0b 18bb 1bd1 5d3a 9186 0b3c f24f 2cba
00000200: ec74 043b 82ee b7ba 300e 0e3d 0c70 3ebb
00000210: c6ab 643a 0b22 b2bb ff1a 3e3b 92d4 3f3b
00000220: a982 edbb 2af3 a2bc 1772 b4bc aa37 df3c
00000230: df88 fcbb 6a5c 66bc 8933 47bc 9082 b0bb
00000240: b5f6 d13b a7ac cc3b 459e a4bc 2680 983b
00000250: e113 213d fc71 ca3b 7f85 6c3c bc53 09bc
00000260: 12cc b83b 481c aa3b 8270 a6bb 1346 5dbc
00000270: 4de6 d6bc 91fe 393d 2df7 aabc 3c2d f1bb
00000280: 829d 10bb 408b 80ba e090 0a3c 496b 6ebb
00000290: d134 08bc 7285 1ebc fbe9 163d 1120 13bc
000002a0: 1b98 56bb 2e8b e9ba c7c2 4c3c 311f cbba
000002b0: 04b7 f03a 75b2 4bbc 1939 dcbb cfdf e43b
000002c0: dbf8 98bb 34b2 c1bb a33e e6bb 2c32 153c
000002d0: c7a3 793b 023f ec39 0227 00bb 3913 67bc
000002e0: 3b0b 663c d837 0bb8 37f1 60bb a891 b9bb
000002f0: 969e 7d3c 1e5d 403c 77c8 5d3b 7768 f7bb
00000300: e477 2abb b20e 653b 13d4 b3b8 7428 a0bb
00000310: 5e6a a1bb e261 973c da8a 5bbb 2ec0 c6bb
00000320: 3ad7 b6bb d79b 24bc b43f 483c e79e 9fbc
00000330: 285c f0b9 0c39 b638 b8fd 473c 9770 86bb
00000340: ee66 f7ba a5c3 36bc a4d6 47bc db6d 9c3c
00000350: 3a3e 79bb f041 8fbb de57 873b 6c97 aa3c
00000360: 3038 58bc aae2 92bc b0e8 60bc 10d9 bc3b
00000370: 91cc 3e3d eb8c 5dbb be53 9bbb b49a d13a
00000380: eac6 d83b 574f ea3b d7ad edba f7c7 c3bb
00000390: d655 94bc 0d2a 073d d5a6 a9bc 84d6 e9ba
000003a0: 6608 10bc 4835 f83b d0b7 7cbb 489d 4ebb
000003b0: 4755 2abc 0e7a eabb b6cd cd3c ab13 6fbb
000003c0: acff 6dbc d665 b5bb d52c 253b 97ac a13b
000003d0: 5bc0 c43a ac95 cf3b 4320 cdbc 33fa 31bc
000003e0: d70f 9d3c cb11 a5bc d4b7 a9bc 5078 fbba
000003f0: e410 d5ba 75a4 953c a6a0 b23b 4e9b 0dbc

conv4.bias f4 [3]
0.027564062 0.02713113 0.027714271
00000000: 07ce e13c 1b42 de3c 0a09 e33c
